nohup: ignoring input
module 'inference.UAVSimulator' has no attribute 'NNSimulator'
Creating folder for results at ./experiments/SimNN/082622163452
16:34:52 main: Beginning experiment ID 082622163452 of type 'traineval'
16:34:52 main: Beginning training experiment on device: cuda
16:34:52 SimNN: No existing model found, new model created.
SimNN(
  (hidden): FCNet(
    (model): Sequential(
      (0): Linear(in_features=295, out_features=1024, bias=True)
      (1): ReLU()
      (2): Linear(in_features=1024, out_features=2048, bias=True)
      (3): ReLU()
      (4): Linear(in_features=2048, out_features=1024, bias=True)
      (5): ReLU()
    )
  )
  (reg_out): FCNet(
    (model): Sequential(
      (0): Linear(in_features=1024, out_features=512, bias=True)
      (1): ReLU()
      (2): Linear(in_features=512, out_features=512, bias=True)
      (3): ReLU()
      (4): Linear(in_features=512, out_features=256, bias=True)
      (5): ReLU()
      (6): Linear(in_features=256, out_features=128, bias=True)
      (7): ReLU()
      (8): Linear(in_features=128, out_features=3, bias=True)
    )
  )
  (clf_out): FCNet(
    (model): Sequential(
      (0): Linear(in_features=1024, out_features=512, bias=True)
      (1): ReLU()
      (2): Linear(in_features=512, out_features=128, bias=True)
      (3): ReLU()
      (4): Linear(in_features=128, out_features=64, bias=True)
      (5): ReLU()
      (6): Linear(in_features=64, out_features=8, bias=True)
      (7): ReLU()
      (8): Linear(in_features=8, out_features=1, bias=True)
    )
  )
)
16:34:52 UAVMatrixDataset: Using encoding scheme 'matrix'
16:35:01 main: Raw data loaded from filtered_aggregated_uav_designs.csv (114141 records) 
16:35:01 main: Splitting the dataset into a train and test set with 20% (22829 records) as the test set
16:35:01 main: Splitting train dataset into a train and validation set with 10% (9132 records) as the validation set, 82180 records in the train set.
…
