…
16:17:12 main: Beginning experiment ID 072722161712 of type 'kfold'
16:17:12 main: Beginning 4-folds training experiment on device: cuda
16:17:12 UAVMatrixDataset: Scale data: True
16:17:12 UAVMatrixDataset: Using encoding scheme 'matrix'
16:17:14 main: Raw data loaded from filtered_aggregated_uav_designs.csv (32165 records) 
16:17:14 main: 
================================================================================
Fold 0 experiment beginning.
================================================================================

16:17:14 SimNN: No existing model found, new model created.
SimNN(
  (hidden): FCNet(
    (model): Sequential(
      (0): Linear(in_features=295, out_features=1024, bias=True)
      (1): ReLU()
      (2): Linear(in_features=1024, out_features=1024, bias=True)
      (3): ReLU()
      (4): Linear(in_features=1024, out_features=512, bias=True)
      (5): ReLU()
      (6): Linear(in_features=512, out_features=256, bias=True)
      (7): ReLU()
    )
  )
  (reg_out): FCNet(
    (model): Sequential(
      (0): Linear(in_features=256, out_features=128, bias=True)
      (1): ReLU()
      (2): Linear(in_features=128, out_features=32, bias=True)
      (3): ReLU()
      (4): Linear(in_features=32, out_features=16, bias=True)
      (5): ReLU()
      (6): Linear(in_features=16, out_features=3, bias=True)
    )
  )
  (clf_out): FCNet(
    (model): Sequential(
      (0): Linear(in_features=256, out_features=128, bias=True)
      (1): ReLU()
      (2): Linear(in_features=128, out_features=32, bias=True)
      (3): ReLU()
      (4): Linear(in_features=32, out_features=8, bias=True)
      (5): ReLU()
      (6): Linear(in_features=8, out_features=1, bias=True)
    )
  )
)
16:17:14 main: Splitting the dataset into a train and test set with 24123/8042 records in the train/test set
16:17:14 main: Splitting the train dataset into a train and validation set with 19298/4825 records in the train/validation set
16:17:16 Trainer: Training model using device cuda
16:17:16 Trainer: Using Adam optimizer with LR=0.001
16:17:16 Trainer: Using MultiStepLR learning rate scheduler with params milestones=[1],gamma=0.1
…
